test/V2/models/cnn_model_20.pth (torch, 508412 bytes, 8 tensors)

conv1.weight f4 [64, 2, 3, 3]
0	0x3db9acf0	0.09066188
1	0x3e0d2a0b	0.1378557
2	0xbe42f418	-0.19038427
3	0x3d98429d	0.074345805
4	0xbe10be2c	-0.14135045
5	0xbdf35219	-0.11880893
6	0xbe4ca688	-0.19985402
7	0x3d9325ac	0.0718492
8	0x3e6155fb	0.22005455
9	0x3d14a687	0.036291625
10	0xbe46a5a5	-0.19399126
11	0xbe0a409f	-0.13501213
12	0xbd6ed794	-0.05831106
13	0xbea78b8a	-0.32723647
14	0xbf18fbbb	-0.5975911
15	0x3dbf1644	0.09330419
16	0x3eaa625a	0.3327816
17	0x3eb3a2ba	0.35085088
18	0x3c12c3cc	0.008957814
19	0x3bffe9f0	0.00780987
20	0x3e0911ec	0.13385743
21	0xbe83234e	-0.25612873
22	0x3ddd4f56	0.10806148
23	0xbe847911	-0.25873616
24	0xbdac5214	-0.08414093
25	0xbea38280	-0.319355
26	0x3de4335c	0.111426085
27	0x3ea1df04	0.3161546
28	0xbd436f0d	-0.04771333
29	0x3da48958	0.08034009
30	0xbe817e4d	-0.25291672
31	0xbe3723ac	-0.17884701
32	0xbd386377	-0.045016732
33	0xbed7ef3a	-0.42174703
34	0x3e79aa76	0.24381432
35	0x3df191a1	0.11795355
36	0x3d99268d	0.07478056
37	0xbdcb4ded	-0.099269725
38	0xbd9f28e1	-0.07771469
39	0x3e3b097d	0.18265338
40	0x3d784df5	0.06062122
41	0xbe6234fb	-0.22090523
42	0x3da5189d	0.08061335
43	0x3d4913c0	0.0490911
44	0x3d31ea2f	0.043436226
45	0xbf37d3fa	-0.71807826
46	0xbe6b3f82	-0.22973445
47	0xbf3554f9	-0.70832783
48	0xbef1ac7d	-0.4720191
49	0xbeeea4fe	-0.46610254
50	0x3cea6e43	0.02861703
51	0xbe9c8426	-0.3056957
52	0xbec7a1f0	-0.38990736
53	0xbf4ba0ea	-0.7954241
54	0xbe366da4	-0.17815262
55	0xbe69cd05	-0.22832115
56	0x3e60e47b	0.21962158
57	0xbe0d0c9b	-0.1377434
58	0xbe3224ef	-0.17396902
59	0x3d35175a	0.044211723
60	0x3dc7f86b	0.09764179
61	0x3e6ff9bf	0.23435114
62	0xbd898094	-0.067139775
63	0x3ed48cb0	0.41513586
64	0x3d469d25	0.04848971
65	0xbec4ae96	-0.38414448
66	0xbe1e3e41	-0.15453435
67	0x3de5b23d	0.11215637
68	0x3daaa264	0.08331755
69	0x3e14e55d	0.1454062
70	0x3e35462c	0.1770255
71	0xbd461c03	-0.048366558
72	0xbd88a376	-0.06671803
73	0xbe4bae49	-0.19890703
74	0x3e247908	0.16061795
75	0xbde7e784	-0.11323455
76	0xbd49ebb2	-0.049297042
77	0x3bce1b4c	0.006289875
78	0x3e0bd568	0.13655627
79	0x3e77b087	0.24188434
80	0xbe725587	-0.23665439
81	0x3d85d073	0.06533899
82	0xbe0cfb33	-0.137677
83	0x3ea6451f	0.3247461
84	0x3e83a9fc	0.25715625
85	0xbf2d1835	-0.6761506
86	0xbd9e231a	-0.07721539
87	0x3ca6520a	0.020302791
88	0x3e69c67b	0.2282962
89	0xbdc6d7eb	-0.09709152
90	0xbdfde8c4	-0.12397912
91	0xbddf98e8	-0.109178364
92	0x3e1e9dac	0.15489835
93	0x3cac9f75	0.021072129
94	0xbba924a1	-0.005161837
95	0x3d1a0209	0.037599597
96	0x3de4f6f4	0.11179915
97	0x3dd9c600	0.10633469
98	0xbe34d9a3	-0.17661147
99	0x3d4d14a5	0.050068516
100	0x3e8b6fa9	0.27233627
101	0x3df1f445	0.11814169
102	0xbd6cb221	-0.057787064
103	0xbd6207fa	-0.05518339
104	0x3d9101ca	0.07080419
105	0x3e2f4f69	0.17120136
106	0xbde0dd06	-0.10979657
107	0x3e8a8aeb	0.2705911
108	0x3e3cfb84	0.1845532
109	0xbe10774b	-0.14108007
110	0x3e056c18	0.13029516
111	0x3e1cd303	0.1531487
112	0xbdf095a2	-0.1174729
113	0xbd4a178c	-0.049338862
114	0x3e3bfcbd	0.18358131
115	0xbe4de7f3	-0.20108013
116	0xbe13d53b	-0.1443681
117	0xbe8eba5b	-0.27876553
118	0xbf156606	-0.583588
119	0xbf34fc89	-0.7069784
120	0xbf2beb91	-0.6715632
121	0xbda85ef5	-0.082212366
122	0xbea1c8e9	-0.31598595
123	0xbedc59b0	-0.43037176
124	0xbed83cfe	-0.42234033
125	0xbe9bc6de	-0.3042516
126	0x3d68b7aa	0.05681578
127	0xbda5fc11	-0.081047185
128	0x3bfe0a44	0.0077526886
129	0x3e2e03e3	0.1699367
130	0x3e05cba1	0.1306596
131	0xbe35ba69	-0.17746891
132	0x3b38945f	0.0028164608
133	0xbdcfbaad	-0.101430275
134	0xbaa480bf	-0.0012550576
135	0xbf200322	-0.6250478
136	0xbe33409b	-0.17505114
137	0x3e857329	0.26064423
138	0xbdf22236	-0.118229315
139	0xbe24c8d8	-0.16092241
140	0xbe2e3a2b	-0.17014377
141	0xbd41b680	-0.047293186
142	0x3eb37286	0.35048312
143	0xbdb6af4e	-0.089201555
144	0xbdd136f7	-0.10215562
145	0x3e46ec7b	0.19426148
146	0xbd958b61	-0.07301975
147	0x3e7124e6	0.23549232
148	0xbe6c3773	-0.23068027
149	0x3d21e842	0.03952814
150	0xbe180551	-0.14845778
151	0x3c90985f	0.017650781
152	0x3dab9934	0.083788306
153	0x3f43f68e	0.7654809
154	0x3eacaf08	0.33727288
155	0x3ec0cc69	0.37655953
156	0x3f06be3f	0.5263404
157	0x3ec8af8b	0.3919643
158	0xbe303848	-0.1720897
159	0x3e3316b6	0.17489132
160	0x3e83411d	0.25635615
161	0x3e540046	0.2070323
162	0x3dfeaed6	0.12435691
163	0xbd2941f7	-0.041322675
164	0xbd54c67a	-0.051947095
165	0x3e534285	0.20630844
166	0x3e067ded	0.13133974
167	0xbe748949	-0.23880495
168	0xbe7d4f94	-0.24737388
169	0xbae64b1c	-0.0017569992
170	0xbdf565ba	-0.119822934
171	0x3d5c8063	0.053833377
172	0x3ef2b22c	0.4740156
173	0xbe4550b2	-0.19269064
174	0xbe61adf8	-0.2203902
175	0xbc3c9f13	-0.011512536
176	0x3ea66616	0.3249976
177	0xbd5f184d	-0.054466534
178	0xbef79b09	-0.4836047
179	0xbeb6b0eb	-0.35681853
180	0xbd8e2198	-0.06940001
181	0x3da27bad	0.079337455
182	0xbcb3f080	-0.021965265
183	0x3dcb4908	0.09926039
184	0xbe381bbb	-0.17979328
185	0x3dfde37f	0.12396907
186	0xbd7beaad	-0.0615031
187	0x3dda0b36	0.106466696
188	0x3c46f021	0.012142212
189	0xbef29659	-0.4738033
190	0x3c50f696	0.012754103
191	0xbe67889e	-0.22610709
192	0xbe8a1e91	-0.26976445
193	0x3c862afb	0.016377917
194	0xbe40a253	-0.18811922
195	0x3d97c4db	0.07410594
196	0xbe1cf9d7	-0.15329681
197	0xbebc3345	-0.36757866
198	0xbe5cbe98	-0.21557081
199	0xbd09d4d7	-0.033650246
200	0x3e81b8c2	0.25336272
201	0xbd8b8abb	-0.0681357
202	0x3e4c0bd1	0.19926383
203	0xbe1627eb	-0.14663665
204	0x3d8dbea7	0.0692113
205	0x3e49440d	0.19654866
206	0xbe5aa65d	-0.21352525
207	0x3eea55ae	0.45768493
208	0xbed96bfb	-0.42465195
209	0x3e6d1878	0.23153865
210	0x3ceaf087	0.028679146
211	0xbd6fdae2	-0.058558352
212	0xbc7b3efd	-0.015334842
213	0xbe0eb97b	-0.13937943
214	0xbe9bb8fd	-0.30414572
215	0xbd54aa67	-0.05192032
216	0xbe82a35e	-0.25515264
217	0x3e3c29d1	0.18375327
218	0x3dab4104	0.0836201
219	0xbebebcf0	-0.37253523
220	0xbe21f55f	-0.15816258
221	0x3e71af9c	0.23602146
222	0x3c4eac90	0.012614384
223	0xbea1f2fa	-0.3163069
224	0xbe52ce90	-0.2058661
225	0xbb33746d	-0.0027382628
226	0x3d963214	0.073337704
227	0x3d9b90ea	0.075959995
228	0x3d99e926	0.07515173
229	0x3ebc818e	0.36817592
230	0xbc1f159a	-0.00970974
231	0x3e20c543	0.1570025
232	0x3d97fe1d	0.07421515
233	0x3db8dac6	0.09026103
234	0x3c1d9e13	0.009620207
235	0x3d94736d	0.07248578
236	0xbe3178b8	-0.17331207
237	0x3e417c10	0.18894982
238	0xbca15cd2	-0.01969758
239	0x3cf0f144	0.02941192
240	0xbe3c4e87	-0.18389331
241	0x3e087caa	0.13328806
242	0xbe6b12bc	-0.22956365
243	0xbee7660d	-0.45195046
244	0xbe8fdfc2	-0.281004
245	0xbe6fe05b	-0.23425429
246	0xbe2d4827	-0.16922055
247	0x3ecc73e3	0.39932165
248	0x3e222763	0.15835337
249	0x3e91a052	0.28442627
250	0xbe10349f	-0.14082573
251	0xbe9d6054	-0.30737555
252	0xbbf556dc	-0.007487161
253	0xbe14dcaf	-0.14537309
254	0x3df7d6c3	0.121015094
255	0xbe1e8d3d	-0.15483566

conv1.bias f4 [64]
0	0x3db1af75	0.08676044
1	0x3d011523	0.0315143
2	0xbce64b42	-0.028112058
3	0xbdc51310	-0.096227765
4	0x3e00fd2a	0.12596574
5	0xbdad7de4	-0.08471277
6	0x3d6723dc	0.056430683
7	0xbe1c41c4	-0.15259463
8	0xbdf8a842	-0.12141468
9	0x3e141e4f	0.14464687
10	0xbe99e557	-0.30057785
11	0xbe0ad58e	-0.13558027
12	0x3da338db	0.07969829
13	0xbdfb020f	-0.12256252
14	0x3cc3b708	0.023890987
15	0xbcd26b9e	-0.025686081
16	0x3a4e5ae1	0.00078718184
17	0x3cb2e62b	0.021838268
18	0xbe56f22a	-0.20990816
19	0xbe533bb1	-0.20628239
20	0xbe16cff6	-0.14727768
21	0x3e2c756d	0.1684167
22	0xbe0c57cf	-0.13705371
23	0x3c828545	0.015932688
24	0xba4d1913	-0.0007823866
25	0x3d94bbfd	0.072624184
26	0x3c451295	0.012028356
27	0x3ddbf128	0.10739356
28	0xbe7bd8e0	-0.2459445
29	0x3d857466	0.06516342
30	0x3e30bd30	0.1725967
31	0x3e5ddb4a	0.21665683
32	0xbe336078	-0.17517269
33	0xbe5d5a2b	-0.21616428
34	0x3e2ea167	0.17053758
35	0xbe35fced	-0.17772265
36	0xbe838802	-0.25689703
37	0xbc1c4513	-0.009537953
38	0x3c8c47df	0.017124115
39	0x3dda0a4b	0.106464945
40	0xbe197746	-0.14986905
41	0x3c07dafa	0.008291954
42	0xbda04584	-0.07825759
43	0xbde5991e	-0.112108454
44	0xbbe3a232	-0.0069468254
45	0xbeac19dd	-0.33613482
46	0xbc01dd1b	-0.007926251
47	0xbd98a43b	-0.074531995
48	0x3e1c518f	0.15265487
49	0xbe043fe5	-0.12914999
50	0xbcb5ab51	-0.022176417
51	0xbcae9838	-0.021312818
52	0xbe58e1c2	-0.2117987
53	0x3d6a35da	0.057180263
54	0x3e18b9e0	0.14914656
55	0xbdb50d0f	-0.08840381
56	0xbe083f4a	-0.13305393
57	0x3c37a8cd	0.011209679
58	0xbcfe8db9	-0.031073438
59	0xbe42f7cd	-0.19039841
60	0xbccd58bd	-0.025066728
61	0xbd5af8a1	-0.053459767
62	0x3cc37aad	0.023862207
63	0xbe84bc63	-0.25924978

conv2.weight f4 [64, 64, 3, 3]
0	0x3d02d2b6	0.03193923
1	0x3d248c51	0.04017288
2	0x3e3374a1	0.17524959
3	0x3db26796	0.08711164
4	0x3d959c1f	0.07305168
5	0x3d2e7bf1	0.04259867
6	0xbda371fb	-0.079807244
7	0x3a253ac0	0.0006303005
8	0x3c388018	0.011261009
9	0x3e13dc88	0.14439595
10	0xbc9b3fa4	-0.018951245
11	0xbc9ea499	-0.019365596
12	0x3d4212ef	0.047381338
13	0xbdb1a39d	-0.08673785
14	0xbd58fcf6	-0.052975617
15	0xbd980041	-0.074219234
16	0xbdeff7fa	-0.1171722
17	0xbe1d50a0	-0.15362787
18	0xbdf730a5	-0.12069825
19	0x3d602e04	0.054731384
20	0x3d325e2b	0.043546837
21	0xbc01f93b	-0.007932956
22	0xbdb14b11	-0.08656896
23	0xbd8dd8d9	-0.06926126
24	0xbddbf29a	-0.10739632
25	0xbdd1c4e8	-0.10242635
26	0xbce48b6c	-0.027898513
27	0xbdab7284	-0.083714515
28	0x3d145cef	0.03622144
29	0x3e257cea	0.16160932
30	0x3d3335d0	0.04375249
31	0x3d8ae75f	0.06782412
32	0xbd2c024a	-0.04199437
33	0x3cccc131	0.024994465
34	0x3c9b1b89	0.018934028
35	0x3ca3441b	0.019929936
36	0x3d9699ff	0.07353591
37	0xbdf73a4a	-0.12071665
38	0xbd4e0eb1	-0.05030698
39	0xbc4d19fc	-0.012518402
40	0x3d94f24d	0.07272778
41	0x3beefaf5	0.0072931
42	0x3ad1340f	0.0015960949
43	0xbd99d98f	-0.07512199
44	0xbc05fc5d	-0.008177844
45	0xbda04e64	-0.07827452
46	0x3cc73493	0.024317062
47	0x3c25f001	0.010128022
48	0xbcadf904	-0.021236904
49	0x3c700dde	0.014651744
50	0x3d983c23	0.07433345
51	0x3d9b57a9	0.07585079
52	0x3cc253d3	0.023721611
53	0xbdbf429e	-0.09338878
54	0xbdf186b3	-0.1179327
55	0xbc2ad962	-0.010427805
56	0xbccb9793	-0.02485255
57	0xbe38fb19	-0.18064536
58	0x3dfadadd	0.12248776
59	0xbe22a922	-0.15884832
60	0xbdc0fb22	-0.094229
61	0x3c9d324f	0.019189028
62	0xbe1e7ce9	-0.15477337
63	0xbd1422e9	-0.036166105
64	0x3cfd423a	0.030915368
65	0x3d24ca7d	0.04023217
66	0xbda19c93	-0.07891192
67	0xbca7c8b4	-0.020481445
68	0xbc96b445	-0.018396506
69	0xbb8325e1	-0.0040023183
70	0xbc8d1359	-0.01722114
71	0xbc8f4b26	-0.017491888
72	0x3e2de94b	0.16983525
73	0x3d577084	0.052597538
74	0xbd1c63a6	-0.03818097
75	0x3d6be619	0.057592485
76	0xbd102dc3	-0.03519989
77	0xbcd0aced	-0.025473082
78	0xbdcc0e79	-0.09963698
79	0x3c7e3caa	0.015517393
80	0x3db820e6	0.0899065
81	0x3d0c84ec	0.03430645
82	0xbca31fc5	-0.01991261
83	0x3d4b92bd	0.049700487
84	0xbe0257fb	-0.12728874
85	0xbddd59bb	-0.1080813
86	0xbd130d45	-0.035901327
87	0xbbfe6de7	-0.007764566
88	0xbde78f28	-0.11306602
89	0xbd9fe9be	-0.07808255
90	0xbd850577	-0.06495183
91	0x3cd309df	0.025761543
92	0x3c1f1197	0.009708784
93	0x3cc111a1	0.023567976
94	0xb9bdee16	-0.00036226277
95	0x3d367ba5	0.04455151
96	0xbcf819c4	-0.030285724
97	0x3ce40050	0.02783218
98	0x3d28dd31	0.04122657
99	0xbd935a0e	-0.07194911
100	0x3de60c4a	0.11232813
101	0x3d0790b9	0.033097003
102	0xbdba6c14	-0.091026455
103	0xbd47e3d4	-0.04880126
104	0xbd30bf87	-0.043151405
105	0x3daa5700	0.08317375
106	0x3d63c95e	0.05561196
107	0x3e32fcb1	0.17479207
108	0xbe18b630	-0.14913249
109	0xbe2324ac	-0.15931958
110	0xbe060d77	-0.13091074
111	0xbc36f27b	-0.01116621
112	0xbd317070	-0.04332012
113	0xbe0446be	-0.12917611
114	0x3d23b068	0.039963156
115	0xbe19f0e7	-0.15033303
116	0x3cdb10f5	0.026741484
117	0xbeb06dc1	-0.34458736
118	0x3d8a9264	0.06766203
119	0xbe752c31	-0.23942639
120	0x3e2500dc	0.16113609
121	0x3e834a5c	0.2564267
122	0xbd2f3617	-0.042776193
123	0x3e07168d	0.13192196
124	0x3dcab59f	0.09897923
125	0xbcd4bea3	-0.025969809
126	0xbd20310a	-0.039109267
127	0x3d239de4	0.039945498
128	0xbc868b0f	-0.01642373
129	0x3e00c77c	0.12576097
130	0x3dba24b6	0.09089033
131	0xbde1ba6a	-0.11021884
132	0x3e3014d4	0.17195445
133	0x3da875b3	0.08225574
134	0xbdb52fb1	-0.08846987
135	0xbd72a2db	-0.059237342
136	0x3c28bb1e	0.010298518
137	0x3c4fecec	0.012690764
138	0x3c6d1b50	0.014471844
139	0x3b86006b	0.0040894053
140	0xbca2fde1	-0.01989645
141	0xbd772130	-0.060334384
142	0xbd267ca0	-0.040646195
143	0x3d80ab01	0.062826164
144	0x3cfaf741	0.030635478
145	0x3e6f73de	0.23384044
146	0x3c6d4f66	0.014484262
147	0x3eaac490	0.3335309
148	0x3e567430	0.2094276
149	0x3e97e233	0.29664764
150	0x3dd03abf	0.10167455
151	0x3e536cf0	0.20647025
152	0xbeaa517d	-0.33265296
153	0xbde7b258	-0.11313313
154	0xbbff96dd	-0.0077999667
155	0x3c80fd9a	0.015745927
156	0x3d47901e	0.048721425
157	0xbd54ed91	-0.051984373
158	0xbd8d65ab	-0.06904157
159	0xbd457e44	-0.04821612
160	0xbd184020	-0.03717053
161	0x3cc828d9	0.02443354
162	0xbd0f88bb	-0.035042506
163	0xbcfd3e75	-0.03091357
164	0x3d694256	0.05694803
165	0xbdb84d40	-0.08999109
166	0x3aa7fbb9	0.0012816108
167	0x3dc3217d	0.09527872
168	0xbd2d30ef	-0.042282995
169	0x3dce2d03	0.10067179
170	0xbdb32eb5	-0.08749143
171	0x3dc32f7f	0.095305435
172	0x3d3f5cfb	0.046719532
173	0x3cd555f3	0.02604196
174	0x3e0509bb	0.12991993
175	0x3d95e437	0.07318919
176	0xbd09f381	-0.03367949
177	0x3e1bdaf7	0.15220247
178	0x3d2d0471	0.042240564
179	0xbbf7bfa8	-0.007560689
180	0xbb10411a	-0.002201146
181	0x3d768b8c	0.060191676
182	0xbc07bece	-0.0082852375
183	0xbbde74e8	-0.0067888387
184	0x3d8681a0	0.06567693
185	0x3c2b7179	0.010464066
186	0x3c507661	0.012723536
187	0x3d0435f6	0.032278024
188	0xbcc5ff43	-0.02416957
189	0x3d833c07	0.06407934
190	0x3e33fc3b	0.17576687
191	0xbc17054a	-0.00921757
192	0xbcb44302	-0.022004608
193	0xbd9f4886	-0.077775046
194	0xbe207b68	-0.15672076
195	0xbbba2548	-0.005680714
196	0xbd622a38	-0.055216044
197	0xbd995870	-0.07487571
198	0xbd490167	-0.049073603
199	0xbdb59d2c	-0.08867869
200	0x3e1aa8a6	0.15103397
201	0xbe8d03ef	-0.27542064
202	0xbd8844af	-0.06653725
203	0x3c928375	0.01788495
204	0xbdeb83d5	-0.11499754
205	0x3db40d11	0.08791555
206	0xbea15b1a	-0.31514817
207	0xbcc35cea	-0.023848016
208	0xbd053aaf	-0.03252667
209	0xbce76b61	-0.028249444
210	0x3c4cee02	0.012507917
211	0x3d31f7a0	0.043449044
212	0xbcdebe98	-0.027190492
213	0xbd183f9f	-0.03717005
214	0x3cb28b11	0.021794828
215	0x3cfb6b03	0.030690676
216	0xbb86025f	-0.004089638
217	0x3c3a74e3	0.011380407
218	0xbc4416db	-0.01196834
219	0xbd0cfb64	-0.034419432
220	0xbefcf650	-0.49406672
221	0xbdd702bb	-0.10498568
222	0x3dad3900	0.084581375
223	0xbe5fc23c	-0.21851438
224	0xbd91ffee	-0.07128893
225	0x3ddd1d5b	0.10796615
226	0xbda78d7c	-0.08181283
227	0xbd223aa1	-0.039606694
228	0x3d35795e	0.044305198
229	0xbc16d277	-0.009205452
230	0x3d3bf6ff	0.04588985
231	0xbda7cced	-0.08193383
232	0x3b88453d	0.0041586445
233	0x3cfbe7a1	0.030750098
234	0xbdabab47	-0.08382278
235	0x3c8c5152	0.01712862
236	0xbcd36db9	-0.025809156
237	0xbdaba81c	-0.08381674
238	0xbd70b4ec	-0.05876629
239	0x3d9d3fcc	0.07678184
240	0xbd94ef7d	-0.07272241
241	0xbd998ab1	-0.074971564
242	0xbda80a3f	-0.08205079
243	0x3d234d95	0.03986891
244	0x3d929a74	0.07158366
245	0xbcfe24f6	-0.031023484
246	0x3da49f7e	0.08038233
247	0x3cac87af	0.021060793
248	0x3d4fbde4	0.050718203
249	0x3c5cb11b	0.01346996
250	0xbcbe3a68	-0.02322121
251	0xbc60abe9	-0.013712862
252	0xbe406a51	-0.18790556
253	0xbdf846fb	-0.121229135
254	0x3c3b98b3	0.011449981
255	0xbe1ee1d4	-0.15515834

conv2.bias f4 [64]
0	0xbd5cf59b	-0.053945165
1	0xbd902991	-0.07039178
2	0xbc8ba202	-0.017045025
3	0xbd2e71b6	-0.042588912
4	0xbd3ee360	-0.04660356
5	0xbc95f04b	-0.018303057
6	0xbc99f96f	-0.018795697
7	0x3cbbc54f	0.022921233
8	0xbd21688f	-0.039406355
9	0xbe0be821	-0.13662769
10	0x3c463b73	0.012099135
11	0x3dbb3367	0.091406636
12	0xbc70131e	-0.014652995
13	0x3dd064ed	0.101755
14	0xbc65a5bb	-0.014016564
15	0xbd5fda86	-0.05465176
16	0x3c384232	0.011246251
17	0xbd153355	-0.036425907
18	0x3cee2cbf	0.029074071
19	0xbd2edab7	-0.04268905
20	0xbd79d81a	-0.060997106
21	0xbd9e8110	-0.077394605
22	0xbc84696e	-0.016163554
23	0xbbd3a126	-0.0064584194
24	0xbd185644	-0.037191644
25	0xbd3b6f83	-0.045760643
26	0xbd02f93b	-0.031975966
27	0xbd34a348	-0.04410103
28	0x3c9c0dd4	0.019049563
29	0x3d20f8d9	0.03929982
30	0x3d1439c3	0.0361879
31	0xbd20d111	-0.03926188
32	0xbca7ba69	-0.02047463
33	0xbcb088db	-0.021549633
34	0xbbb207cf	-0.0054330598
35	0x3d842305	0.06451992
36	0xbd49e317	-0.049288835
37	0x3c5be789	0.0134219015
38	0xbd6950db	-0.056961875
39	0xbb98d165	-0.0046636336
40	0xbd2b9894	-0.041893557
41	0xbd0aab74	-0.033854917
42	0xbdb6d40c	-0.089271635
43	0xbd8127ef	-0.06306445
44	0xbdc5bd61	-0.09655262
45	0xbc03e29b	-0.008049632
46	0xbdb14721	-0.08656145
47	0xbb7e7e9d	-0.0038832792
48	0xbd5693d6	-0.05238708
49	0xbd81e38a	-0.06342228
50	0x3b795530	0.003804516
51	0xbd0a36e7	-0.033743765
52	0xbc57ce53	-0.01317175
53	0x3b1a25ff	0.0023521183
54	0xbaa063fa	-0.0012236827
55	0xbc96fe42	-0.018431786
56	0xbd0b2560	-0.03397119
57	0xb9077303	-0.00012917448
58	0x3df583a8	0.11988002
59	0xbce5caab	-0.028050741
60	0xbc2435ee	-0.010022623
61	0xbdbc7251	-0.092014916
62	0xbb84ab30	-0.0040487275
63	0xbcc4e5cb	-0.024035355

conv3.weight f4 [64, 64, 3, 3]
0	0xbd962913	-0.07332053
1	0xbca90e00	-0.020636559
2	0xbd42f462	-0.047596343
3	0xbdffc6d2	-0.12489094
4	0x3dd3bd54	0.10338846
5	0x3d4a97f8	0.049461335
6	0xbbfa6fca	-0.007642721
7	0xbd3437d3	-0.04399855
8	0xbd08958c	-0.033345744
9	0x3d96fc88	0.07372385
10	0x3cb2a603	0.021807676
11	0x3b8a9974	0.004229719
12	0x3d22f76a	0.039786734
13	0xbc309150	-0.010776833
14	0xbcbc6b65	-0.023000428
15	0x3c175301	0.009236098
16	0xbc0ceefc	-0.0086019
17	0x3d4b8b25	0.049693245
18	0x3d7e9f0d	0.0621634
19	0x3e082673	0.13295917
20	0x3e07ed73	0.13274173
21	0xbd3928f2	-0.045205064
22	0xbd305f08	-0.04305938
23	0xbe010eac	-0.12603253
24	0xbd4793ff	-0.048725124
25	0xbc078430	-0.008271262
26	0xbd5a949c	-0.05336438
27	0xbd13936a	-0.036029257
28	0xbcef5ef1	-0.029220076
29	0xbd0abd68	-0.033872038
30	0xbc13e465	-0.0090266215
31	0xbd01b28f	-0.031664427
32	0x3d0b3adb	0.033991676
33	0xbcf8000e	-0.030273464
34	0x3cbd712a	0.02312525
35	0x3ca8d1e1	0.02060789
36	0xbb4d4362	-0.003132068
37	0x3ab7e83a	0.0014031001
38	0xbcb0a51c	-0.021563105
39	0x3c4922c3	0.012276354
40	0xbc8a4537	-0.016878707
41	0xbb0232ad	-0.001986663
42	0x3a7ad96a	0.00095691404
43	0xbd96d125	-0.0736411
44	0x3d6b92fc	0.057513222
45	0xbd5117e8	-0.05104819
46	0x3dfe69a6	0.124224946
47	0xbe0f9932	-0.14023283
48	0xbceb6a44	-0.028737195
49	0xbdf3ae5e	-0.11898492
50	0x3ddfe543	0.109324
51	0xbd83edf6	-0.06441872
52	0xbcba1dcc	-0.022719286
53	0xbbe75251	-0.0070593734
54	0xbdb615c1	-0.08890868
55	0x3c8fbf48	0.017547265
56	0xbc82e04c	-0.015976094
57	0xbdebf9cc	-0.11522254
58	0xbe0a7b3d	-0.13523574
59	0xbddddb3d	-0.10832832
60	0x3da33d55	0.079706825
61	0xbd387eef	-0.04504293
62	0xbdddaa08	-0.108234465
63	0xbe0b065a	-0.13576642
64	0x3d65bf71	0.056090776
65	0xbca45ff0	-0.020065278
66	0xbdd10bd6	-0.10207336
67	0xbd1a0516	-0.037602507
68	0xbdfc13c8	-0.123084605
69	0xbd405c21	-0.04696286
70	0x3e0622fc	0.13099283
71	0xbad5b3ed	-0.0016304232
72	0xbd3696b8	-0.04457733
73	0xbdb89cf8	-0.090143144
74	0x3e07f15a	0.13275662
75	0xbebb0e99	-0.36534575
76	0xbd99cee1	-0.07510162
77	0xbe39b944	-0.1813708
78	0x3c1e75b9	0.009671622
79	0xbd81bd36	-0.06334917
80	0xbd69bbe6	-0.05706396
81	0x3d86bdf2	0.06579198
82	0xbdd29345	-0.10281996
83	0xbea928b1	-0.33038858
84	0xbdbeda35	-0.093189634
85	0xbe05a5aa	-0.13051477
86	0xbb92a1bd	-0.004474847
87	0xbe584395	-0.2111953
88	0xbb1fb4af	-0.002436917
89	0xbdeefde2	-0.11669518
90	0xbde8ee7b	-0.113736115
91	0xbe147c15	-0.14500459
92	0x3e6b814c	0.22998542
93	0xbdf5950c	-0.11991319
94	0xbcbc1220	-0.022957861
95	0xbd097ea6	-0.033568047
96	0xbe2ca8c0	-0.16861248
97	0xbdab9749	-0.08378465
98	0xbbab3cb7	-0.0052257436
99	0xbe562be1	-0.20915176
100	0x3c0a8eff	0.0084569445
101	0xbe1f6fd6	-0.15570006
102	0xbd231a09	-0.03981975
103	0xbc4681a9	-0.012115874
104	0x3d9decf8	0.07711214
105	0xbe079045	-0.13238628
106	0xbdf35d8a	-0.118830755
107	0xbcab49c6	-0.020909201
108	0x3ceb5bc1	0.028730275
109	0xbbeeb899	-0.0072851893
110	0xbe83e164	-0.25757897
111	0x3d881e50	0.06646407
112	0x3d88bf38	0.06677097
113	0xbe7c7c9f	-0.24656914
114	0xbeaca711	-0.33721212
115	0xbda6907c	-0.08133027
116	0x3e0e0127	0.13867627
117	0xbe9c62b6	-0.3054406
118	0xbea447ca	-0.3208602
119	0xbe049fe9	-0.12951626
120	0xbc3d52c8	-0.011555381
121	0xbe50cd1c	-0.20390743
122	0x3d8efc9e	0.06981777
123	0xbc7e4370	-0.015519008
124	0xbd8046b9	-0.06263489
125	0x3e07f2fd	0.13276286
126	0x3c73fa8a	0.014891276
127	0xbdae5675	-0.08512584
128	0xbf097f2f	-0.5370969
129	0x3e3f5333	0.18684082
130	0x3da5ee52	0.081020966
131	0xbe7ce2a6	-0.24695835
132	0xbd84666f	-0.0646485
133	0xbd2f06af	-0.042730983
134	0xbd2ccb98	-0.04218635
135	0xbdb87801	-0.09007264
136	0x3cdc8721	0.026919903
137	0x3dc8e73b	0.09809729
138	0xbb4f8a21	-0.0031668025
139	0xbddf7290	-0.10910523
140	0xbcd85c68	-0.02641125
141	0x3d8fd507	0.070230536
142	0xbc3b1b64	-0.011420105
143	0xbdd98c56	-0.1062247
144	0xbd7b7284	-0.061388507
145	0x3d76183b	0.0600817
146	0xbd88af6e	-0.066740856
147	0x3d9e619c	0.07733461
148	0x3ddc7817	0.10765093
149	0xbe96527d	-0.2935981
150	0xbe16b7af	-0.14718507
151	0xbd854b02	-0.06508447
152	0xbd983d38	-0.074335515
153	0x3e38ba9a	0.18039933
154	0x3d202661	0.0390991
155	0xbde66e4e	-0.11251508
156	0x3c3bbe3a	0.011458928
157	0xbcff53f3	-0.03116796
158	0x3c29a6d4	0.010354716
159	0xbd1ca069	-0.038238917
160	0x3ccf30a7	0.025291754
161	0xbcaf25d6	-0.021380346
162	0xbc54950d	-0.01297499
163	0x3b8f1a55	0.0043671527
164	0xbd2fc972	-0.042916723
165	0xbd0b1bbf	-0.033962008
166	0xbb043f68	-0.0020179395
167	0x3aadc4c2	0.0013257491
168	0x3cebbc3b	0.028776279
169	0xbc0895d8	-0.008336507
170	0xbbb2d7c0	-0.0054578483
171	0xbd2cee49	-0.042219434
172	0x3ae28fd5	0.0017285297
173	0xbce22b7b	-0.027608624
174	0xbd40e60f	-0.0470944
175	0x3c627d06	0.013823753
176	0x3cc1e3db	0.02366822
177	0x3c9fe979	0.019520508
178	0x3d01b07a	0.03166244
179	0x3d003014	0.03129585
180	0xbe09e0e8	-0.13464701
181	0x3cdaf7a8	0.02672942
182	0x3e022ebf	0.12713145
183	0xbd8275ce	-0.06370126
184	0x3baf0351	0.0053409715
185	0x3e076736	0.13222966
186	0xbe0fbc3a	-0.14036646
187	0xbc0b488f	-0.008501186
188	0x3d1bd2cc	0.03804283
189	0xbc65262e	-0.0139861535
190	0xbd05e550	-0.032689393
191	0x3a7031bc	0.00091626844
192	0xbd278144	-0.04089476
193	0xb8376472	-4.3724147e-05
194	0x3b08d7de	0.002088062
195	0x3d492098	0.04910335
196	0xbd5b63ac	-0.05356185
197	0xbbd74d57	-0.006570499
198	0xbefff7d1	-0.49993756
199	0xbd83171a	-0.06400891
200	0xbec31972	-0.3810535
201	0xbe5a7504	-0.213337
202	0xbe83dd53	-0.25754794
203	0xbe94919f	-0.2901735
204	0x3eb016cd	0.34392396
205	0x3cab1722	0.020885054
206	0xbbb14c1b	-0.005410684
207	0xbda5fdb3	-0.0810503
208	0xbd49ca14	-0.049264982
209	0x3cfaf235	0.030633071
210	0xbdb9dc5c	-0.09075233
211	0x3d9bc545	0.076059856
212	0xba1a854e	-0.0005894498
213	0x3decdce9	0.11565573
214	0x3c6066ea	0.013696412
215	0xbe1b80a1	-0.15185787
216	0x3e57fbac	0.21092099
217	0xbd9ecbed	-0.077537395
218	0xbd08fe47	-0.033445623
219	0xbe459d44	-0.19298273
220	0xbdeb954e	-0.11503087
221	0x3de23875	0.110459246
222	0xbe9b9456	-0.3038661
223	0x3db645ea	0.08900054
224	0x3e036a9e	0.1283364
225	0xbd943698	-0.072369754
226	0xbd719b34	-0.058985904
227	0xbe448c92	-0.19194248
228	0x3e26c273	0.16285114
229	0xbdbba1e5	-0.09161738
230	0xbd42e415	-0.047580797
231	0xbe1e3580	-0.15450096
232	0xbdcc47c2	-0.09974624
233	0x3da297ce	0.07939111
234	0x3e07af44	0.13250452
235	0xbd18bcf9	-0.037289593
236	0xbd730512	-0.059331007
237	0xbe2752e6	-0.16340217
238	0x3e994e2b	0.2994245
239	0x3e048885	0.12942703
240	0xbc7b19d5	-0.015325983
241	0xbd71d373	-0.059039544
242	0x3d2ea208	0.042634994
243	0xbe8eae79	-0.27867487
244	0xbd4df8d6	-0.050286137
245	0xbdb4e31d	-0.08832381
246	0x3c943a1a	0.018094111
247	0x3cc13b0e	0.02358773
248	0xbde29621	-0.11063791
249	0xbe5f3c47	-0.21800338
250	0xbd2921ad	-0.04129188
251	0x3d124d5a	0.0357183
252	0x3d31b49d	0.043385137
253	0x3d9edf12	0.07757391
254	0xbcb780dd	-0.022400314
255	0x3e5e1da3	0.21690993

conv3.bias f4 [64]
0	0xbdc1faff	-0.09471702
1	0xbdade399	-0.084906764
2	0xbd095121	-0.033524636
3	0x39918d1f	0.000277617
4	0x3d7d0811	0.06177527
5	0xbd28e615	-0.04123505
6	0x3d57f04f	0.05271941
7	0x3cf1bf49	0.029510157
8	0x3a70bedd	0.0009183714
9	0xbd358d38	-0.04432413
10	0xbc14bc4e	-0.009078098
11	0xbd543c62	-0.051815398
12	0xbadc264e	-0.0016796084
13	0xbdfae455	-0.12250582
14	0xbcd9ebf5	-0.02660177
15	0xbd1fdddd	-0.039029945
16	0x3d4e68a3	0.050392758
17	0xbd03aaa9	-0.032145176
18	0x3b2e782d	0.0026621923
19	0xbbf44dba	-0.007455555
20	0xbda3d572	-0.07999696
21	0xbd2d2050	-0.042267144
22	0xbd3cb4f0	-0.046070993
23	0x3c710afd	0.0147120925
24	0xbd7e529d	-0.062090505
25	0xbd08f42a	-0.033435978
26	0xbd960c53	-0.073265694
27	0xbd844485	-0.064583816
28	0xbc9b6399	-0.01896839
29	0xbcd53b8f	-0.026029376
30	0x3b1d92a8	0.0024043713
31	0xbd18e58d	-0.03732829
32	0xbcdbbc74	-0.02682326
33	0xbd9a6afa	-0.075399354
34	0x3d34be1f	0.044126626
35	0xbd2824cb	-0.041050714
36	0x3d7c0340	0.061526537
37	0xbd1be109	-0.038056407
38	0xbdc98f09	-0.09841735
39	0xbe082f1b	-0.1329922
40	0x3d1fa16d	0.038972307
41	0x3c96b265	0.018395612
42	0x3b38e065	0.0028209921
43	0xbca8e6b5	-0.020617822
44	0x3d87f0b3	0.066377066
45	0xbc92b734	-0.017909624
46	0xbcfc9ace	-0.030835535
47	0xbccca0da	-0.024979044
48	0xbcee4501	-0.029085638
49	0x3cc2760a	0.023737926
50	0xbd02ef7a	-0.031966664
51	0x3db1766e	0.08665167
52	0x3ca64e7d	0.020301098
53	0xbc2376d9	-0.009977066
54	0x3c4a05f9	0.012330526
55	0x3caeb37f	0.021325825
56	0xbdc74cf2	-0.09731473
57	0xbe108cf7	-0.14116274
58	0xbd9356de	-0.07194303
59	0xbd4beb78	-0.049785107
60	0x3c900ffc	0.017585747
61	0x3c8e6beb	0.017385444
62	0xbba33052	-0.0049801255
63	0x3c10a828	0.008829154

fc.weight f4 [2, 25600]
0	0xbb0c58b1	-0.002141517
1	0xbd0b683e	-0.03403496
2	0x3d11ff0e	0.03564363
3	0xbdafbc99	-0.08580894
4	0xbd9a3459	-0.07529516
5	0x3d2b1275	0.04176565
6	0xbdd61193	-0.10452571
7	0xbcc53887	-0.024074806
8	0x3dded686	0.10880761
9	0xbd904943	-0.070452236
10	0xbd813f40	-0.06310892
11	0x3c5f4075	0.013626208
12	0xbcd919a6	-0.026501488
13	0x3daf5d29	0.08562691
14	0x3c8f8cbf	0.017523168
15	0xbc036ff4	-0.008022297
16	0x3b8e6125	0.0043450766
17	0x3b60719e	0.0034247409
18	0x3b8f247f	0.0043683643
19	0x3bdcbf0c	0.0067366417
20	0x3d72c8f3	0.05927367
21	0xbd82555a	-0.06363936
22	0xbdbcfe1f	-0.09228157
23	0xbe0a6965	-0.13516767
24	0xbe2288ad	-0.1587245
25	0x3d39b201	0.045335773
26	0xbd12c95d	-0.035836566
27	0xbe22641e	-0.15858504
28	0xbd8e62f4	-0.069524676
29	0x3df58a41	0.119892605
30	0xbb34c3b7	-0.0027582475
31	0xbc6dd318	-0.014515661
32	0xbcc016aa	-0.023448307
33	0x3c4c28a8	0.012460865
34	0x3d4a93ba	0.04945729
35	0x3e48e2df	0.19617794
36	0xbcaceb6e	-0.021108355
37	0xbce091a1	-0.027413191
38	0x3beae926	0.0071689067
39	0xbe2fa3b1	-0.17152287
40	0x3eac71a2	0.33680445
41	0xbdc5cbd3	-0.09658017
42	0xbdbf6a1a	-0.09346409
43	0xbe569c2a	-0.2095801
44	0x3e48df6d	0.1961648
45	0xbde90580	-0.11378002
46	0x3deb952a	0.1150306
47	0xbe29ed47	-0.1659442
48	0xbbfd9bd0	-0.0077395216
49	0x3ceed835	0.02915583
50	0xbcdbbb29	-0.026822643
51	0x3d95c691	0.07313264
52	0x3d27ae70	0.04093784
53	0xbe7e9323	-0.24860816
54	0xbe3d7000	-0.18499756
55	0xbd4bda1e	-0.04976856
56	0xbdffd8a4	-0.12492493
57	0xbe8879f5	-0.26655546
58	0x3d07736c	0.03306906
59	0xbe674bf6	-0.2258757
60	0x3d92d33d	0.07169197
61	0x3c1ebae9	0.009688118
62	0x3d1b752f	0.03795355
63	0xbd01bc43	-0.03167368
64	0x3c8eeff9	0.017448412
65	0x3e3de4a4	0.1854425
66	0xbd85deb4	-0.06536618
67	0x3e1f6470	0.15565658
68	0xbd910e64	-0.07082823
69	0x3c4b076b	0.012391905
70	0xbd435df7	-0.047697034
71	0xbcfa0f5a	-0.030524898
72	0xbd2c6fd7	-0.042098846
73	0xbcd3708e	-0.025810506
74	0xbd0594f8	-0.03261277
75	0xbe1e089d	-0.15432973
76	0xbd9505da	-0.07276507
77	0xbe1820ab	-0.14856212
78	0x3e495ce3	0.1966434
79	0xbc1225c2	-0.008920135
80	0x3d03276e	0.032020025
81	0xbd1a2e7f	-0.037642
82	0xbc7666c0	-0.015039146
83	0xbc9331ce	-0.017968085
84	0xbd8328c5	-0.064042605
85	0x3db99fe2	0.09063698
86	0x3c648cf4	0.0139496215
87	0x3dc13680	0.09434223
88	0xbd156909	-0.036477122
89	0x3d67592c	0.056481525
90	0x3b9543c1	0.004555196
91	0xbd7cbda1	-0.06170428
92	0xbdce0d8d	-0.10061178
93	0xbdaf5f7e	-0.085631356
94	0xbdc72a7c	-0.097249
95	0xbd9c55c1	-0.07633544
96	0xbd9662b8	-0.07343048
97	0xbdc389d6	-0.095477745
98	0x3c8d3aa4	0.017239876
99	0x3c6d0d10	0.014468446
100	0x3c39ce51	0.011340694
101	0xbb9fca77	-0.0048764306
102	0xbca1bcfc	-0.019743435
103	0x3c1422e3	0.009041521
104	0xbc830558	-0.015993759
105	0xbc110e5b	-0.00885352
106	0x3c726095	0.014793535
107	0xbc976ab7	-0.018483503
108	0xbca0d80b	-0.019634267
109	0xbd16567a	-0.036703564
110	0x3d9b3f51	0.07580436
111	0x3cddc6a1	0.027072253
112	0x3e0e8f51	0.13921858
113	0x3a6d7fd4	0.00090598804
114	0x3d2e4c04	0.042552963
115	0xbda7b286	-0.081883475
116	0xbbc238c9	-0.0059271795
117	0x3cfa9667	0.030589296
118	0x3d8af9cb	0.067859255
119	0xbd401263	-0.046892535
120	0xbd33ec85	-0.043926734
121	0x3d65371d	0.055960763
122	0x39e6d067	0.0004402429
123	0x3bb9e165	0.005672621
124	0xbcbb57fe	-0.022869106
125	0x3c52406f	0.012832745
126	0x3b6fbb53	0.003658016
127	0xbd0b5aae	-0.034022026
128	0xbca65272	-0.020302985
129	0x3c092db2	0.008372711
130	0xbc937c01	-0.018003466
131	0x3d2faf1e	0.042891614
132	0x3d784efe	0.060622208
133	0xbc37d468	-0.011220075
134	0xbd73084c	-0.059334084
135	0x3ca95fb7	0.020675523
136	0xbca42195	-0.020035544
137	0x3bb88cd9	0.0056320247
138	0x3dc95831	0.09831274
139	0xbd5727e1	-0.052528266
140	0x3b838ef1	0.0040148427
141	0xbb6920f7	-0.0035572627
142	0xbbd1cfad	-0.0064029307
143	0x3ca449d3	0.020054733
144	0xbd28547e	-0.041096203
145	0x3b3f105e	0.0029154043
146	0xbc16e216	-0.0092091765
147	0xbc81af7b	-0.015830746
148	0xbcfe3f28	-0.031035975
149	0xbc143ead	-0.009048146
150	0x3d63f6ff	0.055655476
151	0x3d0d6cdb	0.03452764
152	0x3dccb019	0.099945255
153	0x3c7a4add	0.015276638
154	0xbd87dfdc	-0.06634495
155	0x3cd5c669	0.026095586
156	0x3ca32098	0.019913003
157	0x3b72eaf3	0.003706631
158	0xbc5b1436	-0.013371518
159	0x3c2f3c09	0.010695466
160	0xbc3c72eb	-0.011502008
161	0x3d80f001	0.06295777
162	0xbce598fd	-0.028027052
163	0x3c7a76b5	0.015287091
164	0xbbe8aac7	-0.0071004364
165	0xbc42bf29	-0.011886396
166	0x3d08309b	0.03324948
167	0xbd2a6365	-0.041598696
168	0xbbcf622c	-0.0063288417
169	0x3b307b52	0.0026928973
170	0xbb3f6cb3	-0.0029209077
171	0xbca740aa	-0.020416576
172	0x3cd7396e	0.026272502
173	0xbd97ad23	-0.0740607
174	0x3daab762	0.08335759
175	0x3d28fb0b	0.04125504
176	0x3d4287d5	0.04749282
177	0x3d788f48	0.06068352
178	0xbc846b18	-0.016164348
179	0x3e1345c0	0.14382076
180	0x3cb986f9	0.022647368
181	0xbd356351	-0.04428417
182	0x3cf779ee	0.030209508
183	0x3bfd70e7	0.0077344063
184	0x3ccad130	0.024757951
185	0x3c4cd794	0.01250257
186	0xbaf4a583	-0.0018665049
187	0xbbdc1718	-0.00671662
188	0xbc4609ec	-0.0120873265
189	0xbc91543d	-0.017740363
190	0x3c0459fd	0.0080780955
191	0x3d97ce80	0.074124336
192	0x3af421a7	0.0018625752
193	0x3e28de57	0.16491066
194	0x3b9b7a52	0.0047448063
195	0x3cc15a19	0.023602532
196	0x3b87ae6e	0.0041406667
197	0xbdfcf39a	-0.12351151
198	0x3d114ebc	0.035475478
199	0xba2316ee	-0.00062213733
200	0x3cb8124d	0.022469664
201	0x3cc7d601	0.024394037
202	0x3b2442ad	0.0025064156
203	0x3c29b20a	0.010357389
204	0x3c151aaa	0.0091005955
205	0x3c1c7209	0.0095486725
206	0xbc88d83b	-0.01670467
207	0x3c0a2e2d	0.008433861
208	0xbb5ac1a0	-0.003337957
209	0x3cf8d893	0.030376708
210	0x3c00110c	0.007816564
211	0x3cdb47d2	0.026767645
212	0x3cc13506	0.023584854
213	0x3dfc0019	0.12304706
214	0x3d8f4fcd	0.06997643
215	0xbd04ecb8	-0.032452315
216	0x3da517c4	0.080611736
217	0xbd852a51	-0.06502212
218	0xbd57998f	-0.05263668
219	0x3e23f4fd	0.16011424
220	0xbce35c89	-0.027754085
221	0x3cc50ded	0.024054492
222	0xbcb975c1	-0.022639157
223	0xbbfd9c90	-0.007739611
224	0xbc95b7e5	-0.018276164
225	0x3cd90df6	0.026495915
226	0x3c83bfa4	0.016082592
227	0xbcc20446	-0.023683678
228	0x3c929f62	0.017898265
229	0x3d4fbdd8	0.05071816
230	0x3bd5d12a	0.0065251784
231	0xbdbd65f9	-0.09247965
232	0x3ceed726	0.029155325
233	0x3bc2a78f	0.0059403847
234	0x3e3a7321	0.1820798
235	0xbe032d79	-0.12810315
236	0xbe1d844b	-0.15382497
237	0xbd046377	-0.03232142
238	0x3d0a30fc	0.03373812
239	0x3ce780c9	0.028259652
240	0xbc908856	-0.017643135
241	0xbcbd3474	-0.0230963
242	0xbc9b5dfa	-0.01896571
243	0x3cbdbe36	0.023161989
244	0xbd2a06ff	-0.04151058
245	0xbb69aa8f	-0.003565464
246	0x3c3de4ef	0.011590227
247	0x3d195f55	0.03744443
248	0xbc349b84	-0.011023406
249	0xbd2f6b11	-0.042826716
250	0x3d4179f4	0.047235444
251	0xbd800b38	-0.0625214
252	0x3c0816d0	0.00830622
253	0xbc010e66	-0.007876968
254	0x3d160ed7	0.036635246
255	0x3d6ff10c	0.05857949

fc.bias f4 [2]
0	0x3dde73c6	0.10861926
1	0x3db12e8a	0.08651455
