test/V1/models/cnn_model_12.pth (torch, 377292 bytes, 8 tensors)

conv1.weight f4 [64, 2, 3, 3]
00000000: 2ea7 a13d ccd4 09bf 54f5 9b3e f52a 4cbe
00000010: a300 a83d c363 dabe de15 76be 1c5a c23c
00000020: e5cd b03d beb4 453e 3ba9 8f3f c6ea d73e
00000030: a2ba b1be 4516 3bbf f701 0b3f 4b6b 813f
00000040: 6418 2ebf c161 853f 9a08 913d 9c48 0f3d
00000050: 6ca7 8cbd aeb7 22be 3aae 8c3d 40e4 413d
00000060: d79f 4bbe e7ee 04bf f778 013f 7434 9bbf
00000070: e0e2 34be 5561 bd3e f2e4 c23e 37c1 493f
00000080: 8d1a 203f 224d 8a3f 6e3f b23e feac 733f
00000090: 6b5c 2cbf 2218 2e3e ef6a f3be af4b 0fbf
000000a0: bfc4 d8be 7808 8c3e 896a a0be 982b 71be
000000b0: e8ae 9c3e 39ac 30bf bf99 b2be 6d33 28be
000000c0: ab24 22bf 8f95 93bf 4d08 7fbf 0e0c 48be
000000d0: 410f cebf 76b6 493f 2fa0 443f d195 55bf
000000e0: d734 813d 7a1a bc3c 6e7d a23c 4d32 01bd
000000f0: 85cf b4bd d44e 013e 34f1 e23c bc98 5cbf
00000100: 5a19 603f 918f dcbe 9e14 1ac0 8071 04be
00000110: ef95 55be d880 e3bd 5068 6bbf cbc5 483d
00000120: 6119 aebe 9419 9fbf 9f54 8abf a1cf f6bf
00000130: ef48 e6be 5f18 153f 608e 01c0 4f6f 043e
00000140: dc8a 4cbe 54c3 b33e e157 64bf d4d1 82bf
00000150: 6cfc 13bf 83df f93e b516 993f 579e 80be
00000160: f205 603f 7315 243f 0266 89bc 04b7 0fbe
00000170: 951f b1be 0cc8 37bf a6d0 98bf d133 d93e
00000180: 6eec 15be 6d37 3f3e be9c ed3d ebac 5a3d
00000190: 012b 83be e561 563f 743e 19c0 9440 023c
000001a0: 1d80 05c0 ba4a dbbc 39ca 783f 08aa d63c
000001b0: 4b8f 903e 3b8a 8fbe 078d 463c 000a 59be
000001c0: a78d 4a3e 318a 423d 5551 dbbc 8fa3 4d3d
000001d0: 6226 b33a cc78 c23f 6dd7 773f 38d5 693f
000001e0: 6bd8 743f a0e0 b7be 8f03 07be 49d5 e53e
000001f0: eda8 223d 9ab2 5f3e 431d 3bbb 9d1c 89be
00000200: 25ed 003e afc7 f6be 09de 173e 68b4 52bb
00000210: 5718 953e e331 11be d941 0dbf 57f2 04bd
00000220: d67f 86bf c62d 963f 0c67 89be 99a4 193f
00000230: eb9a 973f f102 403f 7a6c 1cbf de6b 13bf
00000240: 472d a23e d6bc f1be ccd0 36bd 0283 a3be
00000250: 5a07 11be bede 63be 2acc 053f 064f b8bd
00000260: 34ab c7be ac87 423f dd08 8bbe 630e b3bf
00000270: 2156 073f 9f4a 61bf 53a9 443f b2cb 68bf
00000280: 30f8 2e3f e8b0 cd3d 9279 30bf 8d18 293d
00000290: 12a5 d2be 31ca cb3e 2880 80be ad9e 2fbe
000002a0: 321a 313e 23c0 85bd cd09 59be acf1 8bbf
000002b0: fe06 533f c098 cb3e 2b8d 42be 3315 1bc0
000002c0: 3cd5 e8bf 843e 543f 418d 1b3e 82a9 3a3e
000002d0: d8ee aa3e 8c15 1dbf 4136 763e 3faa 953e
000002e0: 2789 cebe 7e5e b73d a2f1 d9be 9b9c c83e
000002f0: 4616 183d c02d c33e 234e 05c0 1b5c b83e
00000300: dc86 953e bf0a 10bf 3665 1f3e c278 c0be
00000310: c4d7 ca3d 8d22 d43d 88ef 8e3e f041 9c3d
00000320: 9edd babe 1518 c9be 9cbd a43c d0bb cc3e
00000330: 6497 253e 4ceb 01bf fc04 953e ce41 7bbf
00000340: b080 46bf dc8b 123f 00bb 6c3e b625 71bf
00000350: 2e28 9dbc db45 96bf 4973 e03e 41d2 e7bf
00000360: 281c 29be 866b d9bd 6f92 7c3e fa81 5f3d
00000370: fd1b dd3b c2d6 fbbc b7b1 903d fc6b 033d
00000380: 3869 f1bd 449d 1dbf d1e5 17bf e403 1240
00000390: 716f 94be 8f9f 5fbb 5858 26be 9fdf 6ebd
000003a0: cf75 acbd b04b 813e c348 b8be d00c 703e
000003b0: 0a70 37be 8c4f 20be e61b 2cbe 2310 c33d
000003c0: f483 2a3f 13ec 25be 6f3c 13bf df6c fabf
000003d0: a0e6 a2bf 86cb fcbf 0b52 13bf 78ff 07be
000003e0: 9dc0 12c0 17f4 84be e8f5 17c0 15fc 61bf
000003f0: 2a33 093e 4342 83be bc89 6dbe 3dce a9bf
0.07893215 -0.5384033 0.30460608 -0.19938262 0.082032464 -0.42654237 -0.24031779 0.023724608
0.08633021 0.19307229 1.122352 0.42171305 -0.34712702 -0.73080856 0.54299873 1.0110868
-0.6800597 1.0420457 0.07081719 0.034981355 -0.06867871 -0.1589038 0.068691686 0.047336817
-0.19885193 -0.51927036 0.505752 -1.2125382 -0.17664671 0.3698832 0.38065296 0.7881045
0.62540513 1.0804789 0.34814018 0.9518584 -0.6732852 0.17001393 -0.4754252 -0.5597486
-0.42337605 0.2735021 -0.3133128 -0.23551786 0.30602193 -0.6901279 -0.34882924 -0.16425867
-0.633372 -1.1530017 -0.9962204 -0.19535848 -1.6098405 0.7879404 0.7680692 -0.83431727
0.063089065 0.022961844 0.0198352 -0.03154211 -0.08828644 0.12627727 0.027702905 -0.86170554
0.87538683 -0.43078282 -2.4075084 -0.12933922 -0.20857976 -0.11108559 -0.91956043 0.049016755
-0.34003738 -1.2429681 -1.0807074 -1.9282113 -0.4497752 0.5824031 -2.0243149 0.12933086
-0.19974846 0.3510996 -0.8919659 -1.0220284 -0.5780704 0.48803338 1.1960055 -0.25120804
0.8750907 0.6409523 -0.016772274 -0.14034659 -0.34594408 -0.7178962 -1.1938674 0.42422345
-0.14640972 0.18673487 0.11602162 0.053387564 -0.25618747 0.83743125 -2.3944368 0.007949967
-2.0859444 -0.02676903 0.9718357 0.026204124 0.28234324 -0.2803515 0.0121185845 -0.21195221
0.19780599 0.04749507 -0.02677218 0.05020481 0.0013668055 1.5193114 0.9681309 0.9134097
0.9564273 -0.35913563 -0.13184951 0.44889286 0.03971188 0.21845475 -0.0028551377 -0.26779643
0.12590463 -0.48199221 0.14830793 -0.0032150988 0.29120132 -0.14179187 -0.551786 -0.032457676
-1.0507762 1.1732719 -0.2683643 0.6001678 1.1844152 0.7500449 -0.6110302 -0.5758647
0.3167517 -0.47214383 -0.044632718 -0.3193589 -0.1416296 -0.22252938 0.52264655 -0.089994475
-0.38997805 0.7598827 -0.271552 -1.3988765 0.528658 -0.8800449 0.7682087 -0.90935814
0.68347454 0.10043508 -0.689355 0.04128318 -0.41141564 0.39802697 -0.25097775 -0.17150374
0.17295149 -0.06530788 -0.21195145 -1.0933127 0.82432544 0.39764977 -0.18999164 -2.423169
-1.8190074 0.8290789 0.15190603 0.18228725 0.33385348 -0.61361 0.24044134 0.2923145
-0.40339014 0.0895357 -0.42567164 0.3918198 0.037130617 0.38120842 -2.082894 0.3600777
0.29204452 -0.562664 0.15565953 -0.3759213 0.09904435 0.103581525 0.27917123 0.07629764
-0.36497205 -0.39276186 0.020109944 0.3998704 0.16171032 -0.5074966 0.29105365 -0.98147285
-0.7754011 0.5724466 0.2311821 -0.9419817 -0.019184198 -1.1740068 0.43837956 -1.8111039
-0.16514647 -0.106162116 0.24665235 0.054567315 0.006747721 -0.030742053 0.070651464 0.032085404
-0.11787647 -0.61568093 -0.59335047 2.2814875 -0.28991273 -0.0034122204 -0.16244638 -0.05831873
-0.08420908 0.25253057 -0.35993013 0.23442388 -0.17913833 -0.15655345 -0.16807517 0.09524562
0.66607594 -0.16203336 -0.5751409 -1.9564475 -1.2726631 -1.974961 -0.5754706 -0.13281047
-2.2930062 -0.25967476 -2.374384 -0.8827527 0.13398424 -0.2563649 -0.23197073 -1.3266064

conv1.bias f4 [64]
00000000: bb50 2dbf 84eb 82bf e540 0bbd d180 6bbf
00000010: 93cf 8e3e a3b5 61be 0b85 40bf 0cc8 7a3d
00000020: df18 55bf f5ae 83bc aaf4 96be 4a0b 3fbf
00000030: 02ff 7bbf 912c 4ebf f94c d5be e79c 75bf
00000040: c94f 64bf fe83 0ebe 0d34 55bd 76b2 a03e
00000050: e882 4abf 7cf0 02bf 56a0 383d e36c 6a3e
00000060: 5d7c 88be 29e9 8cbe a674 bdbd 7a7f 22be
00000070: 44da 57bb deb0 73bd 92d7 aabe 10b5 0abf
00000080: 2f51 b9be 7093 bbbe 958f ef3e b433 63bf
00000090: 0219 a8bf dc5f c1be 6b71 e4be f199 e03e
000000a0: 19f3 503d 2e8f 2fbe 7655 c7bd 286c 32bf
000000b0: 0e91 a5be 747c 51be a05a 7fbf 5e94 4fbd
000000c0: a9e2 b9bd 25cd 9abe 077b c03d 0ca1 17bf
000000d0: 9f1d 03bf 72c4 60be eeb7 2bbf 7ebb 1dbf
000000e0: 1da7 8abc 0608 29bf 8ae4 33bf ce13 133d
000000f0: 4899 f4be 97e9 ddbe c5af 6dbf d873 babd
-0.6770131 -1.0228124 -0.033997435 -0.91993433 0.27892742 -0.22041945 -0.7520301 0.061225936
-0.83241075 -0.016074637 -0.2948354 -0.746266 -0.98435986 -0.8053675 -0.41660288 -0.9594254
-0.8918424 -0.13917539 -0.052051593 0.31386155 -0.79106 -0.511482 0.045074783 0.228931
-0.26657382 -0.27521637 -0.092507645 -0.15868941 -0.0032936493 -0.059494846 -0.33367592 -0.5418253
-0.3619475 -0.36635923 0.46789232 -0.8875077 -1.3132632 -0.37768447 -0.4461778 0.43867448
0.051013086 -0.17144462 -0.09733097 -0.69696283 -0.3233723 -0.20457631 -0.9974766 -0.050678603
-0.09076435 -0.30234638 0.093984656 -0.59230113 -0.51217073 -0.21949938 -0.6707753 -0.61614215
-0.016925389 -0.6602787 -0.702706 0.03590756 -0.47773194 -0.43342277 -0.9284633 -0.09104127

conv2.weight f4 [64, 64, 3, 3]
00000000: f49f 3e3d 4fff bc3b 7e58 afbc df22 5cbd
00000010: 07fd 08bd 6323 50bd 7243 d9bb b83b d53c
00000020: 0c2e 64bd d11d 4dbd e0b0 d0bd ac2a 1f3c
00000030: b25d d63a 992f 263c 5226 56bc d0fb 18bc
00000040: 9b8f f03b 1a6d 8dbc 1272 1dbd fbd9 abbc
00000050: d280 51bd 8892 43bd 7606 0dbd e3b2 6cbc
00000060: 472b 5ebb 5cd1 26bd e4ab 8dbb e33d 533b
00000070: 94a7 b33b 609a 4cbd 06dc 25bd e03e 91bd
00000080: 6de9 10be 4acd 96bd d129 afbd ab0a 13bd
00000090: dd2f 883c 8d78 a03b a014 3d3c a25b 2bbd
000000a0: 0d2a 993c 109d 663d 9a42 f33b 2f2a 03bd
000000b0: 489e 053d c20c 3b3c c628 03bd 916c 113b
000000c0: 8f2d 8c3d 0df4 82bd a13d 4d3c 0e2e 21bd
000000d0: 5c7c 77bd 1802 2ebd f334 99bd efce 3d3d
000000e0: 4245 25bd d7fd 9fbd fa8b cabd ec77 8bbd
000000f0: 00e0 7dbd 3326 38bd 2806 d9bc a998 99bc
00000100: 8191 833b a032 42bd a31e 40bd 9b12 46bd
00000110: 5943 26bc 6714 20bb c59a 10bd e1fd 3f3c
00000120: 6c20 0bbd 820e cb3b ebcf 10bd 294c ccbb
00000130: 0889 3abc bd63 d6bc 8072 40bd 30f1 3e3c
00000140: c548 643a 0e93 e2bc fc74 dc3b de1f 30bc
00000150: 6065 34bd e1ee 87bd 1bb3 e8bd 6548 df3b
00000160: e118 84ba 26e4 8dbc 4698 ccbc 111c dfbb
00000170: 8398 3cbd f088 30bd 12f7 893a 759e 86bd
00000180: 774f 02be c29f 3dbc 86a9 89bd 0558 4ebc
00000190: 14d3 0e3d 11ab 5fbd 1d1b 0cbd 16e4 2dbd
000001a0: e805 0fbe 0a68 a83a 19be 1abd 96ea 7cbd
000001b0: 42f3 cabb 25a7 283c 2dc4 71bd cca7 debd
000001c0: cdff 66bd 6baa a1bd c016 bebd e68c a9bd
000001d0: 3c66 6bbc c880 aebd 2e8d 9ebd 5e32 0dbd
000001e0: d008 09bd 4963 893b 1b8d 9fbd d40f 5ebd
000001f0: 7164 e33c cf1a 92ba c9b8 483d 879e 013c
00000200: 3687 b83b 11ee 703b 624f 59bc a164 9f3c
00000210: 3f54 6b3c 4f86 06bd 9f7d e8bc 55d2 19bc
00000220: e001 0dbc 5a3b bcbc a918 813c c51c 78bc
00000230: a1a4 683a 7791 353d c82e 463d 1391 85bc
00000240: 2e71 8a3c 5576 5bbd f8ec acbd cd24 e4bc
00000250: 00d3 2dbd f837 9dbd f7ba 45bb 0e20 cabc
00000260: 710f 11bd 3e5a 00bd 3c91 c0bd 756a bebd
00000270: 1a81 5cbd 3265 c8bd 9353 a0bd aab4 36bd
00000280: c480 cdbd f181 3cbd 14e9 68bd d127 c0bc
00000290: 5591 073b fdf7 35bc 878e 46bd 7bb1 0fbd
000002a0: f133 e83a 009b a6bd 6695 1b3d bb3c 60bd
000002b0: 4d77 a13b 66d1 5dbd ccd3 06bd f0bf 25bd
000002c0: 3889 81bd 8fd5 d7bc b1c0 b3bd d432 97bd
000002d0: e449 3cbb e1f8 5e3d 26df d6bd c673 a2bd
000002e0: 94f0 aebd df2a d5bd e3c6 afbc 316d 12be
000002f0: 2db7 2ebd 57a4 81bd 14b5 8bbd e243 06bd
00000300: cec7 fd3c acfe 48bc 1d20 1d3d 835e e3bc
00000310: be4a 64bd 0033 5ebd c782 afbd ba03 383d
00000320: be53 d03c 384f 3abd d770 a9bd 452c 6dbd
00000330: 3ff7 25bd b80f 70bd 7611 703c 3272 ddbc
00000340: 9b69 24bd ce92 e6bd 8449 60bd f224 99bd
00000350: 93f5 bbbd 1844 01bd 7ff8 99bc 1f80 19bd
00000360: 6e77 6abc 60e8 06bd 6dd5 6bbb 69dd 843c
00000370: b2d7 5dba f81d c7bd 6f8f 3bbd c669 02bd
00000380: bf07 8bbd 5589 41bc 697c bcbb 1afc 6abd
00000390: 6216 413c b416 4dbd 1c22 27bd 8d63 de3c
000003a0: e5e6 2cbc a103 5abd e2d9 033d d89d 3abd
000003b0: 3b0c c5bc 7527 093c 7549 02bd a967 1bbc
000003c0: 4566 53bd 1e20 0dbd 0856 88bc 213e 34bd
000003d0: 5521 ca3c 608e e3bc 119f 93bd 871c 84bd
000003e0: 9ba2 05bd 7f3c 8f3c 6787 e4bc db20 50bd
000003f0: 899f 58bd 8ef8 97bc f611 9ab7 6864 c6bd
0.046539262 0.00576774 -0.021404501 -0.053744193 -0.03344443 -0.050814997 -0.0066303546 0.026029453
-0.055707976 -0.050077263 -0.10189986 0.009714764 0.0016354828 0.010143184 -0.01307066 -0.0093373805
0.007341338 -0.017263938 -0.038438864 -0.020977965 -0.051148243 -0.047747165 -0.03442999 -0.014446947
-0.0033900307 -0.040727004 -0.0043234695 0.0032232932 0.0054826234 -0.04995191 -0.040493034 -0.070920706
-0.14151545 -0.073633745 -0.08552898 -0.035898846 0.016624385 0.0048971833 0.011540562 -0.041835435
0.01869681 0.05630213 0.007423711 -0.03202265 0.032621652 0.011416616 -0.032021306 0.0022189955
0.06844627 -0.06394205 0.0125269005 -0.03935056 -0.060421333 -0.042482466 -0.074808024 0.046339925
-0.040349253 -0.07812088 -0.0988998 -0.06809983 -0.0619812 -0.044958305 -0.026492193 -0.018749552
0.004015148 -0.04741156 -0.046904217 -0.048357587 -0.010147893 -0.0024426223 -0.03530385 0.011718244
-0.033966467 0.006196798 -0.035354536 -0.006234665 -0.01138521 -0.026170606 -0.046984196 0.011654183
0.0008708353 -0.027658012 0.006727813 -0.010749785 -0.04404199 -0.066373594 -0.11362287 0.00681405
-0.0010078215 -0.017320704 -0.024974953 -0.0068087657 -0.046043884 -0.043099344 0.0010525903 -0.06573192
-0.12725626 -0.011573734 -0.06721787 -0.012594228 0.03486927 -0.0546065 -0.034205545 -0.042453848
-0.13967097 0.0012848389 -0.037778948 -0.061747156 -0.0061935494 0.010293757 -0.05902498 -0.108718485
-0.056396294 -0.07893833 -0.09281683 -0.08278827 -0.014367636 -0.08520657 -0.07741772 -0.034471862
-0.03345567 0.004192744 -0.077905856 -0.054214314 0.027757855 -0.0011146906 0.04900435 0.007911331
0.005631353 0.0036762992 -0.013263555 0.019457163 0.014363348 -0.03284293 -0.028380213 -0.009388526
-0.008606404 -0.02297752 0.01575883 -0.015143578 0.0008874629 0.04432818 0.048384458 -0.016304528
0.016899671 -0.053579647 -0.08443636 -0.02784958 -0.042437553 -0.07676691 -0.0030171254 -0.024673488
-0.035415117 -0.03133606 -0.09402701 -0.09297649 -0.05383406 -0.097849265 -0.078284405 -0.04460589
-0.10034326 -0.04602236 -0.056862906 -0.023456486 0.002068599 -0.011106488 -0.04847577 -0.035081368
0.0017715675 -0.08135033 0.037984274 -0.054745417 0.004927552 -0.054154776 -0.03291683 -0.04046625
-0.063250005 -0.02634695 -0.08776987 -0.073827416 -0.0028730566 0.05443657 -0.10491781 -0.07932238
-0.085419804 -0.10408568 -0.021457141 -0.14299466 -0.04265516 -0.063301735 -0.06821647 -0.03277958
0.030979063 -0.01226775 0.038360704 -0.027755028 -0.055735342 -0.054247856 -0.08569866 0.04492543
0.025430556 -0.045485705 -0.082734756 -0.057903547 -0.040518995 -0.05860874 0.0146526005 -0.027031992
-0.040139776 -0.112584695 -0.05475761 -0.0747775 -0.09177699 -0.03155908 -0.01879525 -0.0374757
-0.014310701 -0.032936454 -0.0035985366 0.016218858 -0.0008462622 -0.09722513 -0.045791086 -0.031839155
-0.06788587 -0.011812528 -0.0057521355 -0.05736933 0.011785122 -0.05007048 -0.040804014 0.027147079
-0.010553096 -0.053226117 0.03219021 -0.045560688 -0.024053684 0.008371224 -0.031808335 -0.009485164
-0.051611204 -0.034454457 -0.016642585 -0.044004563 0.024674097 -0.02777785 -0.07208074 -0.06450754
-0.032625776 0.017484901 -0.027896596 -0.050812583 -0.05288652 -0.018551137 -1.8366594e-05 -0.0968712

conv2.bias f4 [64]
00000000: 66ee 88bd 0229 18bf 0011 efbd c4b8 e9bd
00000010: 9311 36bf 16c3 81bd edc6 8ebe 70d2 24bf
00000020: a335 77bf 9329 31bd 9b6c 90bf a21c 073f
00000030: 21c8 29be bc9a 8cbe c651 74bf 7fad 80be
00000040: fe32 2abf 5e7b 30be 5068 c1bd 630b 69be
00000050: 9049 00bf 8fda 43bc b387 4bbd 3e75 acbd
00000060: ed7c 6abd 4353 5fbd 1345 e0be d093 8bbd
00000070: 0ab4 b7bd 9140 f0be c1e7 29bf df6b 08be
00000080: 7c5a c6be 8577 85be e70a 8cbd 3864 1ebf
00000090: b0c7 a9bd b5d1 32bf 76fe 63bd d0fa 923d
000000a0: c3cf 10bf a291 dcbe cf9b 34be 9895 c1be
000000b0: f2f0 81be 4ec9 35bd 3500 dbbc d5f2 5bbf
000000c0: e06f a5bd 6045 3fbf 92da c7be 8826 11be
000000d0: a3e4 f5bd 389e 7dbd ee2b c13e d739 003f
000000e0: d5c4 e4bd 631b dcbd 3e20 0f3e b37a acbe
000000f0: cf0f 06be 5b6b 94bd 3a61 7bbd 7bc2 25bf
-0.06686096 -0.5943757 -0.11673164 -0.11412194 -0.71120566 -0.06336038 -0.27886143 -0.643836
-0.9656622 -0.04325254 -1.1283144 0.52778065 -0.1658025 -0.27461803 -0.95437276 -0.25132367
-0.6648406 -0.17234561 -0.09443724 -0.2275825 -0.5011225 -0.011953964 -0.04968996 -0.084208
-0.057248045 -0.054522764 -0.438027 -0.06815302 -0.089698866 -0.4692426 -0.66369253 -0.133224
-0.3874091 -0.2606775 -0.06838017 -0.6187167 -0.082900405 -0.6985124 -0.055662595 0.07176745
-0.5656702 -0.4307986 -0.17637561 -0.37809443 -0.2537914 -0.044381432 -0.026733497 -0.8591741
-0.08077979 -0.7471523 -0.39033943 -0.14174855 -0.120064996 -0.061918467 0.37728828 0.50088257
-0.11170355 -0.10747411 0.13977143 -0.33687362 -0.13091968 -0.07247039 -0.06137202 -0.6474988

conv3.weight f4 [64, 64, 3, 3]
00000000: cd2f a93d d015 1cbd 2d98 8ebd 1af0 43bd
00000010: aec9 0dbd 83cb 1b3a 7e39 d43c c746 57bd
00000020: 875f 503d 508d 313d 6299 b83e 22ba a5be
00000030: 5b2b 06bf 02f3 c8bd d199 63be a3dd 8d3e
00000040: 2925 1abf fb8a 33bf b0f6 6d3c eb62 693c
00000050: 0fca ed3a f9ad 223b 9c10 0fbd 1197 a83c
00000060: cf6a 873b 4863 dbbc 2dfc 433d 1f26 5ab9
00000070: 9965 363d 4001 1dbb 8fa9 0a3d a3b6 26bd
00000080: 6f17 09bd b0e7 6b3b f1cf 99bc 7eb6 8c3b
00000090: d57a 90bc 969d 48bf a5ce 36be 0dd0 c6be
000000a0: c3b6 4abf 75bc 8bbe fbd3 e7bd 9327 3cbe
000000b0: 4b0e e73c 5b27 2bbd 1df7 453c 3a3f 34bb
000000c0: 8c37 d6bc abc3 47ba 2496 28bd 94a1 8c3d
000000d0: cd9f c7bc ea9d 153b 1b94 3fbf 22eb 8dbf
000000e0: 6b1d e13c 5f2a 193e 9744 6cbf 933a 91be
000000f0: 9fba e2bd b509 743f 2f67 8bbe de91 0dbe
00000100: 38a9 57bf 3081 ffbe e059 aebf 7416 d3be
00000110: 71dc b9be a1d3 22be bd1e e3be 2724 6a3e
00000120: 5eb9 95bf 5833 bebe 6cb1 d8be 84e1 90be
00000130: 5b75 76be fee7 94be bc0d 3fbe f654 3cbe
00000140: f3cb 27bf 7ae1 3e3b 8a4b 9ebc 83b8 1b3c
00000150: ebd8 7c3c 3156 883c 83a3 aebd 0690 62bd
00000160: 07c9 44bd aecd c3bd aec0 5cbf a259 71bf
00000170: 0874 cebe 9906 c7be 0fe8 0cbf 8392 efbe
00000180: b9bd 9fbf 9736 3dbf 15c7 bcbf 27e6 093e
00000190: 7e92 4abe 32db 50bf 2611 6ebf 118f d1bd
000001a0: 0e2a 43bf fae7 06bf e30f a2bf 1476 393e
000001b0: 3957 c83b dde1 a7bc 0a7f 94bc 0ce3 18bd
000001c0: 523d a73b 9822 0cbc 6206 b03d 08b5 d43c
000001d0: 5a85 30bd 5f5b 9dbe db19 35bf ebe0 babe
000001e0: b8d0 0ebd 51c0 68bc ab8e 9c3d 2883 b9be
000001f0: 8631 1cbf 7ee1 3cbf c327 b1bd 970f 91be
00000200: 1dfe 2bbe d6b7 8dbe 68f7 c1be d390 613d
00000210: df71 5bbf ea56 c8be b698 41bf d75d 10bd
00000220: d731 7a3d fc79 cb3d 7417 ddbc 2cb9 39bd
00000230: 6dd2 1cbd cc39 89bd 716f 6c3c bab5 3e3c
00000240: d2f2 c4be 4fe9 d3bf 4869 cabd 6adb 66bf
00000250: b430 9cbe 09cb 56bf f9e2 efbf aef5 8abf
00000260: 9cc0 bcbf 9afc 74be 1b33 e2be dddf 18be
00000270: 25ca 51bf 97f5 29bf 52bf c2bf 41b4 63bf
00000280: 8080 74bf 1d16 59bf ca9a d4bc 4a40 0fbd
00000290: 285a 92bc d328 babc ccc8 ffbb db3c e3b9
000002a0: ad81 cd3c ac04 02bd 4f50 463d 0738 41bf
000002b0: 3114 5dbe 6953 dfbe 8240 8fbf 842d 90be
000002c0: 7a58 febe 00b5 153e 780d a7be 15b6 163f
000002d0: 4bd0 a8be f179 2ebf 9c67 ac3d 5150 33bf
000002e0: 7c6d 40bf 6e8f 05bf 5c6b 8bbe 7676 a2bf
000002f0: 4aa0 5fbf f308 c3bc 7dc5 cbbc 5552 18be
00000300: e34b a4bd 0e04 03be 751d 93bd 771a 663c
00000310: f731 39be 4fbe fcbd 8914 c2bc 0c17 37bd
00000320: c1c6 32bd 8ae2 c6bc 01a3 b2bc 4fb2 a5bd
00000330: 0974 ecbc 8f6c 67bd 6e64 f2bc d046 85bc
00000340: 7524 8b3d a724 1abd 178e eb3c 6d58 48bd
00000350: de0d cabd 3d10 b93d d124 473c 4595 efbc
00000360: 0ebc 97bc f46a c3bc e35e 3fbd b5f1 973c
00000370: bdeb 4fbc 77c1 de3c 95ba e23c ee34 b23b
00000380: b703 543c 5c2c e53c 95f6 06bd 8de1 223d
00000390: 3d19 423d a5fa c3bc 234a 44bd 3ef9 533d
000003a0: 5de0 133a 780c b73c 5c14 cbbe a08a d1be
000003b0: 8ebc 54be c667 d0be 1771 0cbe bbf9 0a3c
000003c0: 6f13 39bc b133 973b 831d af3d a0ae bb3c
000003d0: 43e8 003d adaa a1bc 7c6b 16bc 95d1 f23c
000003e0: de79 b53c 327f 003d 4639 c0bc 290c 643c
000003f0: e42e 93bd 9a3a e9ba 2204 6f3c dd34 9fbc
0.082610704 -0.03810674 -0.06962619 -0.0478364 -0.034616165 0.00059431064 0.02590632 -0.052557733
0.050872352 0.043347657 0.36054522 -0.3236857 -0.52409905 -0.09811975 -0.22226645 0.27708158
-0.6021295 -0.7013394 0.014524147 0.014244775 0.0018141883 0.0024822934 -0.03492795 0.020579847
0.0041326056 -0.02678074 0.047847915 -0.00020804301 0.044530485 -0.0023957044 0.03385311 -0.04070152
-0.033469614 0.003599625 -0.018775912 0.0042942157 -0.017636696 -0.7836546 -0.17852266 -0.38830605
-0.7918512 -0.2729222 -0.11319729 -0.18374471 0.028205058 -0.04178558 0.012082842 -0.0027503506
-0.026149534 -0.00076204044 -0.04115881 0.06866756 -0.024368191 0.002282972 -0.74835366 -1.1087382
0.027479848 0.1495757 -0.9229216 -0.28365 -0.110707514 0.9532731 -0.2722716 -0.13825175
-0.8424258 -0.4990325 -1.3621178 -0.41228068 -0.36300996 -0.15901043 -0.4435939 0.22865354
-1.1697195 -0.37148547 -0.42322862 -0.28297055 -0.24068205 -0.29083246 -0.18657583 -0.18391785
-0.65545577 0.0029126094 -0.01932313 0.00950444 0.015432577 0.016642662 -0.08527281 -0.055313133
-0.048043277 -0.09560715 -0.86231506 -0.94277394 -0.403229 -0.3887222 -0.55041593 -0.46791467
-1.2479774 -0.7391142 -1.4748255 0.13466702 -0.19782445 -0.81584466 -0.92994916 -0.10232366
-0.76236045 -0.5269772 -1.2661098 0.1811145 0.0061139134 -0.020493442 -0.018126983 -0.037325904
0.0051037455 -0.00855317 0.085949674 0.025965229 -0.043095924 -0.30733773 -0.7074258 -0.36499724
-0.03486702 -0.014206008 0.07644399 -0.36232877 -0.61013067 -0.73781574 -0.08650162 -0.28332207
-0.16796155 -0.27679318 -0.37884068 0.055069756 -0.8572063 -0.3912881 -0.75623643 -0.035245743
0.061082687 0.09935376 -0.026988722 -0.04534261 -0.038286615 -0.06700477 0.014430867 0.011640007
-0.38466507 -1.6555575 -0.09883362 -0.9017855 -0.30505908 -0.8390356 -1.8741142 -1.0856225
-1.474628 -0.23924485 -0.44179615 -0.14929147 -0.81949073 -0.66390365 -1.5214636 -0.8894692
-0.95508575 -0.8479937 -0.025952715 -0.03497342 -0.017865255 -0.022724545 -0.0078059193 -0.00043342155
0.025086248 -0.031742737 0.048416432 -0.75476116 -0.21589734 -0.43618324 -1.1191561 -0.28159726
-0.49676877 0.14619827 -0.32627463 0.58871585 -0.32971415 -0.6815482 0.084181994 -0.7004443
-0.7516706 -0.5217198 -0.27230346 -1.2692401 -0.87353957 -0.023807978 -0.024874443 -0.14875157
-0.08022287 -0.12794515 -0.07183353 0.014044396 -0.18085466 -0.12340986 -0.023691433 -0.044699714
-0.043646578 -0.024277944 -0.021806242 -0.0809065 -0.028863924 -0.056500014 -0.029588904 -0.016269118
0.06794063 -0.03763261 0.028754277 -0.048912454 -0.09865926 0.090363 0.012154774 -0.029245982
-0.018522289 -0.02385471 -0.04672135 0.018547872 -0.012690482 0.02719186 0.02767686 0.0054384386
0.012940339 0.027975254 -0.032950003 0.039765883 0.04738735 -0.023923228 -0.047922265 0.051751368
0.0005641038 0.022344813 -0.3966397 -0.40926075 -0.20775053 -0.40704173 -0.13715015 0.008482392
-0.011296137 0.0046143164 0.08550551 0.022910416 0.031471502 -0.019734705 -0.0091809 0.029640952
0.022152837 0.031371303 -0.02346481 0.013918915 -0.07186678 -0.0017793954 0.014588388 -0.019434387

conv3.bias f4 [64]
00000000: 6cee b2be 75fe 323e 8b00 49be 44c6 44bf
00000010: a200 1d3d e7a3 36bf dc30 cabd 78be 2bbf
00000020: b5da f93d 72fe 6abe 78c5 b6be 434f f7bb
00000030: 05ff b2bf ee63 5bbf f3c5 a1bf 9591 81bf
00000040: 194b 01bc 9477 9dbf f26c 3fbf 881b 30bf
00000050: 87dc 7dbf 8e6f 40bf 1a43 0bbe 8b12 97bf
00000060: 8765 97be 6ba7 6abc bf29 edbe c4fa 85bf
00000070: f56e 49bf 682d 96bf de0e 8c3d 9e77 0fbe
00000080: b4c3 01bf 7639 afbe f9b2 98bd eb62 85be
00000090: 1f94 d4be 15bd 34bf 93c7 c4be f2b0 a0bf
000000a0: 1949 45be 7e26 92be 693a e7bd 9909 69bf
000000b0: e221 393e 773e 8cbe 15fb 17bf 21b5 6fbf
000000c0: 0898 ae3d b1d7 f8bd 6c25 9d3e 18f6 1bbe
000000d0: 92fc 26bf 6aa5 8dbe 9114 12bf 40bd 713d
000000e0: 4d47 2dbf d4d5 46be c8d1 75be e799 113d
000000f0: e488 63bf 7e1d 813e 2470 73bd 3b9b 93be
-0.34947526 0.1747988 -0.19629113 -0.7686503 0.03833068 -0.71343845 -0.098726004 -0.6708751
0.12199918 -0.22948626 -0.35697532 -0.0075472905 -1.3984076 -0.85699356 -1.2638534 -1.0122553
-0.00789144 -1.2302117 -0.7477561 -0.6879201 -0.99164623 -0.7517022 -0.13599816 -1.1802534
-0.29569647 -0.014322142 -0.46320912 -1.0467153 -0.7868493 -1.1732607 0.06838773 -0.14010474
-0.50689244 -0.34223527 -0.07456011 -0.2605203 -0.41519257 -0.70601016 -0.38433513 -1.2554
-0.19266166 -0.28544992 -0.11290438 -0.9103027 0.18079332 -0.27391407 -0.59367496 -0.93635756
0.085250914 -0.12150515 0.30692613 -0.15230596 -0.6522914 -0.27665263 -0.5706263 0.059018373
-0.6768692 -0.19417506 -0.24005806 0.035547163 -0.88880754 0.25217813 -0.059433118 -0.2882937

fc.weight f4 [2, 9216]
00000000: 32d3 913d 36e6 e9bb 6e35 99bc fe20 25be
00000010: 815b bb3c deb2 2e3d 7465 d1b9 10bd 8b3c
00000020: b67a dbbd f678 64bd fe6a a4bc 6430 32bd
00000030: 0a85 9ebd 21f1 b93d 36a5 b13d 52d7 b3bd
00000040: cb86 50be 8fd1 fbbc e1fe 3f3d fe93 143e
00000050: ad8f 283d 59f0 03be e5f9 0fbe c367 ee3d
00000060: bb57 543d 201f 833d 4d06 8c3d 2b42 a83d
00000070: 9477 a73d 6f72 913d 64ca 7b3d 3355 c73c
00000080: 8a32 2d3d 7514 bf3c 25aa 95bd 2b04 11be
00000090: 2e85 c5bc b36f d43b ff52 0f3d f43f 173d
000000a0: f02e 283d 254f 843d 333f 033d ed86 a7bc
000000b0: b820 373d c437 14bd 86b3 6fbc c3bc 7abd
000000c0: 0c52 dbbb 3ca4 16bd 05d2 e63c 3101 f63b
000000d0: 125f 183d 8b45 023d 2c6f 263d 62f9 8037
000000e0: 9389 c4bb 7192 983d a718 8cbd 1535 99bb
000000f0: 42df 17bd 530b f4ba 1d89 7d3c 3f4e bc3d
00000100: dfc3 cabb 3abd 93bd d3ff 4f3c 8dbb d03b
00000110: cd5d 6bbb 7c2c 443d de9d 4cbd b2c9 143d
00000120: 7c8f bebb 7690 ca3c 1a4a 7bbc 50d9 a03a
00000130: fa72 9abd 5718 8b3c b1b8 713c 19b2 8639
00000140: 3c12 51ba c734 de3c f1f4 563c 0ec5 4abc
00000150: 6ae6 e23d cf42 923b 5d24 e6bb 3f8a 883b
00000160: 8e49 3c3c f469 90bc 8537 003d 3b77 50bc
00000170: 4983 eebd b828 bcbd 7537 99bd 0b9f e6bc
00000180: 6528 43bc c8ee 9f3b ec33 2bbc 9a2c 63bd
00000190: bae8 00bd 9704 adbc 5651 073d 1276 51bd
000001a0: 5c11 b5bc e26c 1fbe 34ac 1bbd ed85 36bd
000001b0: 6ed4 fcbc ec72 1fbd a6f0 1f3c c08a 71bd
000001c0: 7d2a 0cbe 2c3d 1dbe 9f44 4dbd 6fac 29bc
000001d0: 244b 36be 5221 07bd 28a0 1dbc 5ac2 a43c
000001e0: 61df 4d3d 0eb1 b9bb 8eec 273c 91c5 89bb
000001f0: 5198 b2bb c8f3 8ebd 439d 483c e464 65bd
00000200: 50d3 9b3b ba00 203d 87a8 063e bad5 8fbd
00000210: 2cc7 08bd ae20 d43c 4bae 21bc d421 a5bd
00000220: 8add afbb 2cf9 983c 7761 afbd f0b7 dfbd
00000230: dd05 dcbd fa63 993c 5ef1 69bd 2d8b ce3c
00000240: 844b 1f3d bea7 2fba c70e 1ebe 6784 14bd
00000250: 2760 64be 5c7b 81bc 626b cebd f1d5 1ebe
00000260: ac6a 52be 614d 843b 53d5 d73c d233 a43c
00000270: a266 7fbb f8f5 36be 4064 e83c ee59 333e
00000280: 4906 da3d 94ca 92bc 68d8 ff3d 3bd0 2abd
00000290: b448 39bc 3802 64bd 9bd6 b5bd b8c6 283e
000002a0: 9d6e 473c cd9a 23bd e613 e53b 55a0 d1bd
000002b0: 7288 d73c 0fe6 c33e d9c8 293f 396d 45be
000002c0: 0c8f 29be 52b2 43bc 1979 93bd 9bfb 00be
000002d0: 3f8b a4bc 7f12 113e 7c3e 25bc 000f 73bd
000002e0: f5a1 513e efcd 6c3f 77eb dabe 2ac6 88be
000002f0: c23b 08be 9161 86bd 6b6f 5dbe cde4 883a
00000300: 4193 8bbd 9beb abbd ba61 9b3c 4651 2cbd
00000310: b8f7 c63e 7ff0 f2bd c242 00bd 3cee 51bd
00000320: a16f 01be 3bc7 f9bc 0626 293d e901 7cbd
00000330: 10f7 0ebd 9b2b 19bc e326 d6bd 300f 92be
00000340: a5fd 003e 4b2d 5ebc 7e09 af3c 3d8b e23c
00000350: 4535 93bd f395 e9bb 4dc6 82bd d157 e7bd
00000360: e82e 873d 8b1b ab3d 8182 743d 15e2 06bc
00000370: 7043 833d 6e28 46bd 078b d0bd 72df bd3d
00000380: b90c b63d 2fde 203d 14e8 053e 481b 24be
00000390: 1764 d13d 4fae 07bc c1f5 6abc 3a48 91bd
000003a0: 204d babd 544f d13c d4b9 a0bd 5baa 043d
000003b0: b629 303e d7b4 fb3c d291 82bd ce8b ccbd
000003c0: 6d99 40bd f22f ddbc 503b e0bc a783 cd3d
000003d0: ab3f f4bc cab9 87bd da7f b33d 342e 023d
000003e0: 76f8 aebd bc26 b8bc 8a8a 76bd 9bc7 483e
000003f0: 2a66 19be d106 923d 2497 973d 05c4 1b3e
0.071203604 -0.007138039 -0.018702235 -0.16125867 0.02287078 0.04265105 -0.00039939175 0.017057925
-0.10716765 -0.05577942 -0.02007055 -0.04350318 -0.07740219 0.09079195 0.086740896 -0.087813035
-0.2036392 -0.030739574 0.04687393 0.1450958 0.041152645 -0.12884654 -0.14060171 0.11640885
0.05184148 0.06402421 0.06837139 0.082157455 0.081771046 0.071019046 0.06147231 0.024332618
0.042284526 0.023325184 -0.07307843 -0.14161746 -0.024111357 0.006483042 0.03499126 0.036926225
0.041060388 0.06460408 0.032042693 -0.02045008 0.044708937 -0.036185995 -0.014630204 -0.061215173
-0.0066931304 -0.03677772 0.028176317 0.0075074662 0.03720004 0.031804603 0.040633366 1.5374917e-05
-0.0059978454 0.074498065 -0.068406396 -0.0046755173 -0.03707815 -0.0018619098 0.015474585 0.09194612
-0.0061879004 -0.072138265 0.012695271 0.006370014 -0.0035914064 0.047893986 -0.04995524 0.036325164
-0.0058154445 0.024727087 -0.015337491 0.0012271795 -0.07541461 0.01697938 0.0147535065 0.00025691165
-0.00079754344 0.027124776 0.013119922 -0.012376083 0.11079104 0.0044635306 -0.007023378 0.004166871
0.011492146 -0.017628647 0.031302948 -0.012723739 -0.116461344 -0.09187454 -0.07481281 -0.02815201
-0.011911486 0.00488076 -0.010449391 -0.055462457 -0.031471945 -0.021120353 0.033036552 -0.05113799
-0.022103004 -0.15568879 -0.038006023 -0.044561315 -0.030863013 -0.038927957 0.009761965 -0.058970213
-0.13688083 -0.15355366 -0.05011427 -0.010356053 -0.17802101 -0.03299076 -0.009620704 0.020112205
0.05026186 -0.0056668585 0.01024927 -0.00420446 -0.0054502864 -0.06980091 0.012244525 -0.05600442
0.004755415 0.039063193 0.13150226 -0.07023187 -0.03339307 0.02589449 -0.009868215 -0.08063093
-0.0053669857 0.018673502 -0.08563512 -0.10923755 -0.10743306 0.01872443 -0.05711495 0.025212849
0.038890377 -0.0006700716 -0.15435325 -0.03625908 -0.22302304 -0.015805893 -0.100790754 -0.155113
-0.20548505 0.0040375446 0.026346838 0.020044241 -0.0038971086 -0.17867267 0.028368115 0.17514774
0.1064573 -0.017918862 0.12492448 -0.04170249 -0.011308838 -0.05566618 -0.08878823 0.16482055
0.012172368 -0.03994255 0.0069908975 -0.10235659 0.02631018 0.38261458 0.66322094 -0.19279946
-0.16558474 -0.01194437 -0.07200832 -0.1259598 -0.020085929 0.14167212 -0.010085698 -0.059340477
0.20471938 0.9250173 -0.4275777 -0.26713687 -0.13304046 -0.06561578 -0.21624534 0.0010444165
-0.06815196 -0.083945476 0.018967498 -0.042069696 0.3886087 -0.11862277 -0.031313665 -0.05125259
-0.1264024 -0.030490508 0.041296028 -0.06152526 -0.034903586 -0.009348775 -0.10456636 -0.28527212
0.12596758 -0.013560603 0.02136683 0.027654285 -0.07187895 -0.007128471 -0.06385479 -0.112960465
0.066007435 0.08354863 0.05969477 -0.008232613 0.06409347 -0.0483784 -0.10182767 0.092711344
0.088891454 0.03927439 0.13076812 -0.16026032 0.10224169 -0.0082813045 -0.014340819 -0.07093854
-0.09096742 0.025550522 -0.07847944 0.032389026 0.17203411 0.03072588 -0.06375469 -0.09987603
-0.04702132 -0.027000401 -0.027372032 0.10034876 -0.029815516 -0.06627233 0.0876462 0.031782344
-0.08543484 -0.022479407 -0.060190715 0.19607393 -0.14980379 0.071302064 0.07401875 0.15211494

fc.bias f4 [2]
00000000: 974b 803f 5572 17bb
1.0023068 -0.0023108919
